…
     "shell.execute_reply": "2024-04-29T23:34:13.596453Z"
    },
    "papermill": {
     "duration": 0.162141,
     "end_time": "2024-04-29T23:34:13.600542",
     "exception": false,
     "start_time": "2024-04-29T23:34:13.438401",
     "status": "completed"
    },
    "tags": []
   },
   "outputs": [
    {
     "name": "stdout",
     "output_type": "stream",
     "text": [
      "----------------------------------------------------------------\n",
      "        Layer (type)               Output Shape         Param #\n",
      "================================================================\n",
      "            Conv2d-1         [-1, 64, 128, 128]           9,408\n",
      "       BatchNorm2d-2         [-1, 64, 128, 128]             128\n",
      "              ReLU-3         [-1, 64, 128, 128]               0\n",
      "         MaxPool2d-4           [-1, 64, 64, 64]               0\n",
      "            Conv2d-5          [-1, 128, 64, 64]           8,192\n",
      "       BatchNorm2d-6          [-1, 128, 64, 64]             256\n",
      "              ReLU-7          [-1, 128, 64, 64]               0\n",
      "            Conv2d-8          [-1, 128, 64, 64]           4,608\n",
      "       BatchNorm2d-9          [-1, 128, 64, 64]             256\n",
      "         Identity-10          [-1, 128, 64, 64]               0\n",
      "             ReLU-11          [-1, 128, 64, 64]               0\n",
      "         Identity-12          [-1, 128, 64, 64]               0\n",
      "           Conv2d-13          [-1, 256, 64, 64]          32,768\n",
      "      BatchNorm2d-14          [-1, 256, 64, 64]             512\n",
      "           Conv2d-15          [-1, 256, 64, 64]          16,384\n",
      "      BatchNorm2d-16          [-1, 256, 64, 64]             512\n",
      "             ReLU-17          [-1, 256, 64, 64]               0\n",
      "       Bottleneck-18          [-1, 256, 64, 64]               0\n",
      "           Conv2d-19          [-1, 128, 64, 64]          32,768\n",
      "      BatchNorm2d-20          [-1, 128, 64, 64]             256\n",
      "             ReLU-21          [-1, 128, 64, 64]               0\n",
      "           Conv2d-22          [-1, 128, 64, 64]           4,608\n",
      "      BatchNorm2d-23          [-1, 128, 64, 64]             256\n",
      "         Identity-24          [-1, 128, 64, 64]               0\n",
      "             ReLU-25          [-1, 128, 64, 64]               0\n",
      "         Identity-26          [-1, 128, 64, 64]               0\n",
      "           Conv2d-27          [-1, 256, 64, 64]          32,768\n",
      "      BatchNorm2d-28          [-1, 256, 64, 64]             512\n",
      "             ReLU-29          [-1, 256, 64, 64]               0\n",
      "       Bottleneck-30          [-1, 256, 64, 64]               0\n",
      "           Conv2d-31          [-1, 128, 64, 64]          32,768\n",
      "      BatchNorm2d-32          [-1, 128, 64, 64]             256\n",
      "             ReLU-33          [-1, 128, 64, 64]               0\n",
      "           Conv2d-34          [-1, 128, 64, 64]           4,608\n",
      "      BatchNorm2d-35          [-1, 128, 64, 64]             256\n",
      "         Identity-36          [-1, 128, 64, 64]               0\n",
      "             ReLU-37          [-1, 128, 64, 64]               0\n",
      "         Identity-38          [-1, 128, 64, 64]               0\n",
      "           Conv2d-39          [-1, 256, 64, 64]          32,768\n",
      "      BatchNorm2d-40          [-1, 256, 64, 64]             512\n",
      "             ReLU-41          [-1, 256, 64, 64]               0\n",
      "       Bottleneck-42          [-1, 256, 64, 64]               0\n",
      "           Conv2d-43          [-1, 256, 64, 64]          65,536\n",
      "      BatchNorm2d-44          [-1, 256, 64, 64]             512\n",
      "             ReLU-45          [-1, 256, 64, 64]               0\n",
      "           Conv2d-46          [-1, 256, 32, 32]          18,432\n",
      "      BatchNorm2d-47          [-1, 256, 32, 32]             512\n",
      "         Identity-48          [-1, 256, 32, 32]               0\n",
      "             ReLU-49          [-1, 256, 32, 32]               0\n",
      "         Identity-50          [-1, 256, 32, 32]               0\n",
      "           Conv2d-51          [-1, 512, 32, 32]         131,072\n",
      "      BatchNorm2d-52          [-1, 512, 32, 32]           1,024\n",
      "           Conv2d-53          [-1, 512, 32, 32]         131,072\n",
      "      BatchNorm2d-54          [-1, 512, 32, 32]           1,024\n",
      "             ReLU-55          [-1, 512, 32, 32]               0\n",
      "       Bottleneck-56          [-1, 512, 32, 32]               0\n",
      "           Conv2d-57          [-1, 256, 32, 32]         131,072\n",
      "      BatchNorm2d-58          [-1, 256, 32, 32]             512\n",
      "             ReLU-59          [-1, 256, 32, 32]               0\n",
      "           Conv2d-60          [-1, 256, 32, 32]          18,432\n",
      "      BatchNorm2d-61          [-1, 256, 32, 32]             512\n",
      "         Identity-62          [-1, 256, 32, 32]               0\n",
      "             ReLU-63          [-1, 256, 32, 32]               0\n",
      "         Identity-64          [-1, 256, 32, 32]               0\n",
      "           Conv2d-65          [-1, 512, 32, 32]         131,072\n",
      "      BatchNorm2d-66          [-1, 512, 32, 32]           1,024\n",
      "             ReLU-67          [-1, 512, 32, 32]               0\n",
      "       Bottleneck-68          [-1, 512, 32, 32]               0\n",
      "           Conv2d-69          [-1, 256, 32, 32]         131,072\n",
      "      BatchNorm2d-70          [-1, 256, 32, 32]             512\n",
      "             ReLU-71          [-1, 256, 32, 32]               0\n",
      "           Conv2d-72          [-1, 256, 32, 32]          18,432\n",
      "      BatchNorm2d-73          [-1, 256, 32, 32]             512\n",
      "         Identity-74          [-1, 256, 32, 32]               0\n",
      "             ReLU-75          [-1, 256, 32, 32]               0\n",
      "         Identity-76          [-1, 256, 32, 32]               0\n",
      "           Conv2d-77          [-1, 512, 32, 32]         131,072\n",
      "      BatchNorm2d-78          [-1, 512, 32, 32]           1,024\n",
      "             ReLU-79          [-1, 512, 32, 32]               0\n",
      "       Bottleneck-80          [-1, 512, 32, 32]               0\n",
      "           Conv2d-81          [-1, 256, 32, 32]         131,072\n",
      "      BatchNorm2d-82          [-1, 256, 32, 32]             512\n",
      "             ReLU-83          [-1, 256, 32, 32]               0\n",
      "           Conv2d-84          [-1, 256, 32, 32]          18,432\n",
      "      BatchNorm2d-85          [-1, 256, 32, 32]             512\n",
      "         Identity-86          [-1, 256, 32, 32]               0\n",
      "             ReLU-87          [-1, 256, 32, 32]               0\n",
      "         Identity-88          [-1, 256, 32, 32]               0\n",
      "           Conv2d-89          [-1, 512, 32, 32]         131,072\n",
      "      BatchNorm2d-90          [-1, 512, 32, 32]           1,024\n",
      "             ReLU-91          [-1, 512, 32, 32]               0\n",
      "       Bottleneck-92          [-1, 512, 32, 32]               0\n",
      "           Conv2d-93          [-1, 512, 32, 32]         262,144\n",
      "      BatchNorm2d-94          [-1, 512, 32, 32]           1,024\n",
      "             ReLU-95          [-1, 512, 32, 32]               0\n",
      "           Conv2d-96          [-1, 512, 16, 16]          73,728\n",
      "      BatchNorm2d-97          [-1, 512, 16, 16]           1,024\n",
      "         Identity-98          [-1, 512, 16, 16]               0\n",
      "             ReLU-99          [-1, 512, 16, 16]               0\n",
      "        Identity-100          [-1, 512, 16, 16]               0\n",
      "          Conv2d-101         [-1, 1024, 16, 16]         524,288\n",
      "     BatchNorm2d-102         [-1, 1024, 16, 16]           2,048\n",
      "          Conv2d-103         [-1, 1024, 16, 16]         524,288\n",
      "     BatchNorm2d-104         [-1, 1024, 16, 16]           2,048\n",
      "            ReLU-105         [-1, 1024, 16, 16]               0\n",
      "      Bottleneck-106         [-1, 1024, 16, 16]               0\n",
      "          Conv2d-107          [-1, 512, 16, 16]         524,288\n",
      "     BatchNorm2d-108          [-1, 512, 16, 16]           1,024\n",
      "            ReLU-109          [-1, 512, 16, 16]               0\n",
      "          Conv2d-110          [-1, 512, 16, 16]          73,728\n",
      "     BatchNorm2d-111          [-1, 512, 16, 16]           1,024\n",
      "        Identity-112          [-1, 512, 16, 16]               0\n",
      "            ReLU-113          [-1, 512, 16, 16]               0\n",
      "        Identity-114          [-1, 512, 16, 16]               0\n",
      "          Conv2d-115         [-1, 1024, 16, 16]         524,288\n",
      "     BatchNorm2d-116         [-1, 1024, 16, 16]           2,048\n",
      "            ReLU-117         [-1, 1024, 16, 16]               0\n",
      "      Bottleneck-118         [-1, 1024, 16, 16]               0\n",
      "          Conv2d-119          [-1, 512, 16, 16]         524,288\n",
      "     BatchNorm2d-120          [-1, 512, 16, 16]           1,024\n",
      "            ReLU-121          [-1, 512, 16, 16]               0\n",
      "          Conv2d-122          [-1, 512, 16, 16]          73,728\n",
      "     BatchNorm2d-123          [-1, 512, 16, 16]           1,024\n",
      "        Identity-124          [-1, 512, 16, 16]               0\n",
      "            ReLU-125          [-1, 512, 16, 16]               0\n",
      "        Identity-126          [-1, 512, 16, 16]               0\n",
      "          Conv2d-127         [-1, 1024, 16, 16]         524,288\n",
      "     BatchNorm2d-128         [-1, 1024, 16, 16]           2,048\n",
      "            ReLU-129         [-1, 1024, 16, 16]               0\n",
      "      Bottleneck-130         [-1, 1024, 16, 16]               0\n",
      "          Conv2d-131          [-1, 512, 16, 16]         524,288\n",
      "     BatchNorm2d-132          [-1, 512, 16, 16]           1,024\n",
      "            ReLU-133          [-1, 512, 16, 16]               0\n",
      "          Conv2d-134          [-1, 512, 16, 16]          73,728\n",
      "     BatchNorm2d-135          [-1, 512, 16, 16]           1,024\n",
      "        Identity-136          [-1, 512, 16, 16]               0\n",
      "            ReLU-137          [-1, 512, 16, 16]               0\n",
      "        Identity-138          [-1, 512, 16, 16]               0\n",
      "          Conv2d-139         [-1, 1024, 16, 16]         524,288\n",
      "     BatchNorm2d-140         [-1, 1024, 16, 16]           2,048\n",
      "            ReLU-141         [-1, 1024, 16, 16]               0\n",
      "      Bottleneck-142         [-1, 1024, 16, 16]               0\n",
      "          Conv2d-143          [-1, 512, 16, 16]         524,288\n",
      "     BatchNorm2d-144          [-1, 512, 16, 16]           1,024\n",
      "            ReLU-145          [-1, 512, 16, 16]               0\n",
      "          Conv2d-146          [-1, 512, 16, 16]          73,728\n",
      "     BatchNorm2d-147          [-1, 512, 16, 16]           1,024\n",
      "        Identity-148          [-1, 512, 16, 16]               0\n",
      "            ReLU-149          [-1, 512, 16, 16]               0\n",
      "        Identity-150          [-1, 512, 16, 16]               0\n",
      "          Conv2d-151         [-1, 1024, 16, 16]         524,288\n",
      "     BatchNorm2d-152         [-1, 1024, 16, 16]           2,048\n",
      "            ReLU-153         [-1, 1024, 16, 16]               0\n",
      "      Bottleneck-154         [-1, 1024, 16, 16]               0\n",
      "          Conv2d-155          [-1, 512, 16, 16]         524,288\n",
      "     BatchNorm2d-156          [-1, 512, 16, 16]           1,024\n",
      "            ReLU-157          [-1, 512, 16, 16]               0\n",
      "          Conv2d-158          [-1, 512, 16, 16]          73,728\n",
      "     BatchNorm2d-159          [-1, 512, 16, 16]           1,024\n",
      "        Identity-160          [-1, 512, 16, 16]               0\n",
      "            ReLU-161          [-1, 512, 16, 16]               0\n",
      "        Identity-162          [-1, 512, 16, 16]               0\n",
      "          Conv2d-163         [-1, 1024, 16, 16]         524,288\n",
      "     BatchNorm2d-164         [-1, 1024, 16, 16]           2,048\n",
      "            ReLU-165         [-1, 1024, 16, 16]               0\n",
      "      Bottleneck-166         [-1, 1024, 16, 16]               0\n",
      "          Conv2d-167         [-1, 1024, 16, 16]       1,048,576\n",
      "     BatchNorm2d-168         [-1, 1024, 16, 16]           2,048\n",
      "            ReLU-169         [-1, 1024, 16, 16]               0\n",
      "          Conv2d-170           [-1, 1024, 8, 8]         294,912\n",
      "     BatchNorm2d-171           [-1, 1024, 8, 8]           2,048\n",
      "        Identity-172           [-1, 1024, 8, 8]               0\n",
      "            ReLU-173           [-1, 1024, 8, 8]               0\n",
      "        Identity-174           [-1, 1024, 8, 8]               0\n",
      "          Conv2d-175           [-1, 2048, 8, 8]       2,097,152\n",
      "     BatchNorm2d-176           [-1, 2048, 8, 8]           4,096\n",
      "          Conv2d-177           [-1, 2048, 8, 8]       2,097,152\n",
      "     BatchNorm2d-178           [-1, 2048, 8, 8]           4,096\n",
      "            ReLU-179           [-1, 2048, 8, 8]               0\n",
      "      Bottleneck-180           [-1, 2048, 8, 8]               0\n",
      "          Conv2d-181           [-1, 1024, 8, 8]       2,097,152\n",
      "     BatchNorm2d-182           [-1, 1024, 8, 8]           2,048\n",
      "            ReLU-183           [-1, 1024, 8, 8]               0\n",
      "          Conv2d-184           [-1, 1024, 8, 8]         294,912\n",
      "     BatchNorm2d-185           [-1, 1024, 8, 8]           2,048\n",
      "        Identity-186           [-1, 1024, 8, 8]               0\n",
      "            ReLU-187           [-1, 1024, 8, 8]               0\n",
      "        Identity-188           [-1, 1024, 8, 8]               0\n",
      "          Conv2d-189           [-1, 2048, 8, 8]       2,097,152\n",
      "     BatchNorm2d-190           [-1, 2048, 8, 8]           4,096\n",
      "            ReLU-191           [-1, 2048, 8, 8]               0\n",
      "      Bottleneck-192           [-1, 2048, 8, 8]               0\n",
      "          Conv2d-193           [-1, 1024, 8, 8]       2,097,152\n",
      "     BatchNorm2d-194           [-1, 1024, 8, 8]           2,048\n",
      "            ReLU-195           [-1, 1024, 8, 8]               0\n",
      "          Conv2d-196           [-1, 1024, 8, 8]         294,912\n",
      "     BatchNorm2d-197           [-1, 1024, 8, 8]           2,048\n",
      "        Identity-198           [-1, 1024, 8, 8]               0\n",
      "            ReLU-199           [-1, 1024, 8, 8]               0\n",
      "        Identity-200           [-1, 1024, 8, 8]               0\n",
      "          Conv2d-201           [-1, 2048, 8, 8]       2,097,152\n",
      "     BatchNorm2d-202           [-1, 2048, 8, 8]           4,096\n",
      "            ReLU-203           [-1, 2048, 8, 8]               0\n",
      "      Bottleneck-204           [-1, 2048, 8, 8]               0\n",
      "AdaptiveAvgPool2d-205           [-1, 2048, 1, 1]               0\n",
      "         Flatten-206                 [-1, 2048]               0\n",
      "SelectAdaptivePool2d-207                 [-1, 2048]               0\n",
      "          Linear-208                    [-1, 5]          10,245\n",
      "          ResNet-209                    [-1, 5]               0\n",
      "================================================================\n",
      "Total params: 22,990,149\n",
      "Trainable params: 22,990,149\n",
      "Non-trainable params: 0\n",
      "----------------------------------------------------------------\n",
      "Input size (MB): 0.75\n",
      "Forward/backward pass size (MB): 527.55\n",
      "Params size (MB): 87.70\n",
      "Estimated Total Size (MB): 616.00\n",
…
